2022-11-02 08:24:40,560 ----------------------------------------------------------------------------------------------------
2022-11-02 08:24:40,561 Model: "TARSTagger(
  (tars_model): SequenceTagger(
    (embeddings): TransformerWordEmbeddings(
      (model): BertModel(
        (embeddings): BertEmbeddings(
          (word_embeddings): Embedding(30522, 128, padding_idx=0)
          (position_embeddings): Embedding(512, 128)
          (token_type_embeddings): Embedding(2, 128)
          (LayerNorm): LayerNorm((128,), eps=1e-12, elementwise_affine=True)
          (dropout): Dropout(p=0.1, inplace=False)
        )
        (encoder): BertEncoder(
          (layer): ModuleList(
            (0): BertLayer(
              (attention): BertAttention(
                (self): BertSelfAttention(
                  (query): Linear(in_features=128, out_features=128, bias=True)
                  (key): Linear(in_features=128, out_features=128, bias=True)
                  (value): Linear(in_features=128, out_features=128, bias=True)
                  (dropout): Dropout(p=0.1, inplace=False)
                )
                (output): BertSelfOutput(
                  (dense): Linear(in_features=128, out_features=128, bias=True)
                  (LayerNorm): LayerNorm((128,), eps=1e-12, elementwise_affine=True)
                  (dropout): Dropout(p=0.1, inplace=False)
                )
              )
              (intermediate): BertIntermediate(
                (dense): Linear(in_features=128, out_features=512, bias=True)
              )
              (output): BertOutput(
                (dense): Linear(in_features=512, out_features=128, bias=True)
                (LayerNorm): LayerNorm((128,), eps=1e-12, elementwise_affine=True)
                (dropout): Dropout(p=0.1, inplace=False)
              )
            )
            (1): BertLayer(
              (attention): BertAttention(
                (self): BertSelfAttention(
                  (query): Linear(in_features=128, out_features=128, bias=True)
                  (key): Linear(in_features=128, out_features=128, bias=True)
                  (value): Linear(in_features=128, out_features=128, bias=True)
                  (dropout): Dropout(p=0.1, inplace=False)
                )
                (output): BertSelfOutput(
                  (dense): Linear(in_features=128, out_features=128, bias=True)
                  (LayerNorm): LayerNorm((128,), eps=1e-12, elementwise_affine=True)
                  (dropout): Dropout(p=0.1, inplace=False)
                )
              )
              (intermediate): BertIntermediate(
                (dense): Linear(in_features=128, out_features=512, bias=True)
              )
              (output): BertOutput(
                (dense): Linear(in_features=512, out_features=128, bias=True)
                (LayerNorm): LayerNorm((128,), eps=1e-12, elementwise_affine=True)
                (dropout): Dropout(p=0.1, inplace=False)
              )
            )
          )
        )
        (pooler): BertPooler(
          (dense): Linear(in_features=128, out_features=128, bias=True)
          (activation): Tanh()
        )
      )
    )
    (word_dropout): WordDropout(p=0.05)
    (locked_dropout): LockedDropout(p=0.5)
    (linear): Linear(in_features=128, out_features=5, bias=True)
  )
)"
2022-11-02 08:24:40,562 ----------------------------------------------------------------------------------------------------
2022-11-02 08:24:40,562 Corpus: "Corpus: 550 train + 550 dev + 550 test sentences"
2022-11-02 08:24:40,562 ----------------------------------------------------------------------------------------------------
2022-11-02 08:24:40,562 Parameters:
…
